py/freq_predictor.onnx (onnx, 415867 bytes, 4 tensors)

linear1.weight f4 [100, 1025]
0.096808225 0.1461471 0.15708931 0.03194806 -0.017295472 -0.013096813 -0.046832476 0.014483018
-0.003830475 0.0017501645 -0.014568352 -0.04152304 -0.09917704 -0.118701 0.038131688 0.032119203
-0.018345773 -0.040742226 0.029681344 0.0182823 -0.08730255 -0.0031326772 0.041575745 -0.027955774
-0.0917467 -0.14940034 -0.06641427 0.013098569 0.02279429 0.045134436 0.039141126 0.015788509
0.1177314 0.07966102 -0.058938105 -0.061928745 0.027500274 0.004455215 -0.008809698 -0.06341999
-0.094651446 -0.038714543 0.037350822 -0.0014733233 0.047935035 0.07856466 0.022970779 0.034392323
-0.057927743 -0.08375016 -0.050931845 0.03886819 -0.06242509 -0.04091935 0.025015712 -0.00073873176
0.008766686 0.026469372 0.009730562 0.041901145 -0.029008547 -0.12425985 -0.12628704 0.11012519
0.116595276 0.021418232 0.03606447 -0.0005997603 -0.086008586 -0.05618342 -0.03901759 0.045156583
0.009331968 0.012436602 0.014398409 0.048494954 0.017190289 -0.087119155 -0.11350173 -0.04948574
0.015974678 -0.028148478 -0.030119957 0.028411947 0.028328834 -0.042110447 0.028878195 0.06883263
0.041072886 0.051669247 -0.018119635 0.054901447 0.035336975 -0.017314097 -0.028208287 -0.01913066
-0.09551438 -0.11905904 -0.07866991 -0.00639052 0.075470574 0.111825995 0.030578787 -0.1298616
-0.17035058 -0.12199267 -0.046247482 -0.09542045 0.018370144 0.028105909 0.050999727 0.03320463
0.028444722 -0.03002531 -0.0067841946 0.028507153 0.088967875 0.048137374 0.048464336 0.047059447
0.066411406 -0.03331935 -0.09293555 -0.15075602 -0.18403625 -0.063498564 -0.05649498 -0.048547048
0.075061955 0.1038673 0.1074949 0.061146375 0.033695575 -0.05218579 -0.15345804 -0.16686304
-0.12205145 -0.072944015 -0.036047813 -0.04867813 -0.12715818 -0.010495664 0.023340099 0.020965219
0.024233777 0.08724267 0.04961314 0.036538817 -0.0076887803 -0.008437605 -0.07196533 -0.021827921
-0.025988083 0.0031004262 -0.029284893 -0.12654682 -0.16678073 -0.017339848 0.026347652 -0.0075726686
-0.0053861476 -0.02719422 -0.07976169 -0.072868384 -0.0383689 -0.018724898 0.010890209 0.012362616
0.017138332 -0.09831431 -0.10159562 -0.17492901 -0.10764419 -0.05086626 0.037261184 0.021557558
0.0007905669 -0.0026554589 -0.051240116 -0.102725185 -0.1381796 -0.08713855 -0.03421596 0.03165428
-0.016157305 0.010678879 -0.0036930444 -0.019343076 0.00024698325 0.056757115 0.059210274 -0.006929822
-0.0720339 -0.12542664 -0.12598135 -0.035650425 0.0056184 -0.047356922 -0.09045196 0.014441469
0.027772235 0.017964361 0.06093308 0.085006304 0.092454456 0.024568427 -0.04161122 -0.12936506
-0.15179476 -0.17865457 -0.08671354 -0.016205449 -0.06899455 -0.05056181 -0.04504366 0.028890382
0.055010155 0.00035952785 -0.0032952118 0.061038937 -5.623261e-05 -0.025785396 -0.027905265 -0.027155403
-0.018265843 0.04313487 -0.034807626 0.0032944577 0.0033089956 -0.0057018017 0.0032445851 0.03194982
0.011667407 -0.008227285 0.009939659 0.055178605 0.034992043 0.061283734 0.035989206 0.0035595226
0.040845245 0.04237998 0.005276464 -0.08559052 -0.10184441 -0.09677276 -0.07202618 -0.03149287
-0.00057391106 -0.024942195 -0.09059031 -0.053848267 -0.05389677 -0.022875998 -0.011836958 0.042120732
00000000: 6443 c63d 96a7 153e 05dc 203e f8db 023d
00000010: 3caf 8dbc 0494 56bc 69d3 3fbd 2e4a 6d3c
00000020: b508 7bbb c765 e53a 19b0 6ebc 1014 2abd
00000030: 551d cbbd 8319 f3bd f92f 1c3d 6d8f 033d
00000040: e049 96bc 52e1 26bd 4a26 f33c c3c4 953c
00000050: aecb b2bd 9a4d 4dbb 544b 2a3d 8203 e5bc
00000060: b2e5 bbbd 67fc 18be 3404 88bd 619b 563c
00000070: 17bb ba3c e3de 383d 7252 203d e756 813c
00000080: 291d f13d 5125 a33d 1569 71bd ffa8 7dbd
00000090: 4148 e13c 0dfd 913b 8d56 10bc 57e2 81bd
000000a0: 9ed8 c1bd 2493 1ebd 2dfd 183d 871c c1ba
000000b0: 8757 443d 82e6 a03d 372d bc3c f7de 0c3d
000000c0: a445 6dbd 3485 abbd e99d 50bd 4034 1f3d
000000d0: 73b1 7fbd 0c9b 27bd c0ed cc3c 73a7 41ba
000000e0: 25a2 0f3c 4cd6 d83c ef6c 1f3c 89a0 2b3d
000000f0: 55a3 edbc f37b febd 6451 01be 5189 e13d
00000100: 81c9 ee3d 4a75 af3c 56b8 133d 3b39 1dba
00000110: 4525 b0bd 9620 66bd e9d0 1fbd 1cf6 383d
00000120: 1ce5 183c e4c2 4b3c 4ee7 6b3c a5a2 463d
00000130: a6d2 8c3c 876b b2bd 9873 e8bd 8fb1 4abd
00000140: 54dd 823c a397 e6bc 21be f6bc 2cc0 e83c
00000150: df11 e83c 017c 2cbd f791 ec3c 1ff8 8c3d
00000160: 0b3c 283d 22a3 533d a16f 94bc 57e0 603d
00000170: 81bd 103d 4bd6 8dbc 1115 e7bc e7b7 9cbc
00000180: 0b9d c3bd 3ad5 f3bd b11d a1bd 9167 d1bb
00000190: 5190 9a3d 0705 e53d 5d80 fa3c 70fa 04be
000001a0: 6270 2ebe 4bd7 f9bd 006e 3dbd cc6b c3bd
000001b0: fc7c 963c 5d3e e63c 17e5 503d 9401 083d
000001c0: e804 e93c a4f7 f5bc f34d debb d587 e93c
000001d0: ca34 b63d b22b 453d 8a82 463d 68c1 403d
000001e0: b402 883d df79 08bd fe54 bebd c95f 1abe
000001f0: 0074 3cbe 890b 82bd 4867 67bd 45d9 46bd
00000200: 15ba 993d 61b8 d43d 4926 dc3d 9f74 7a3d
00000210: 5f04 0a3d c4c0 55bd 1b24 1dbe 25de 2abe
00000220: 1cf6 f9bd ac63 95bd dfa6 13bd b862 47bd
00000230: c135 02be 01f6 2bbc bc33 bf3c 40bf ab3c
00000240: ea85 c63c 49ac b23d 2637 4b3d baa9 153d
00000250: 2af2 fbbb e13d 0abc 8f62 93bd 78d0 b2bc
00000260: f6e4 d4bc 8530 4b3b dfe6 efbc 7d95 01be
00000270: 91c8 2abe 4c0c 8ebc 08d7 d73c 2624 f8bb
00000280: 487e b0bb 6ac6 debc 195a a3bd 053c 95bd
00000290: b528 1dbd f564 99bc d96c 323c 928c 4a3c
000002a0: b065 8c3c 0359 c9bd 5d11 d0bd 9720 33be
000002b0: 8f74 dcbd 2459 50bd 2f9f 183d 7a99 b03c
000002c0: 0c3e 4f3a 3507 2ebb 28e1 51bd 9561 d2bd
000002d0: f47e 0dbe b275 b2bd 0926 0cbd eba7 013d
000002e0: 535c 84bc 77f6 2e3c 0107 72bb 5f75 9ebc
000002f0: 887d 8139 267a 683d 7986 723d 8f13 e3bb
00000300: 8286 93bd d76f 00be 4101 01be 2e06 12bd
00000310: 8e1a b83b 55f9 41bd e13e b9bd e99b 6c3c
00000320: 9982 e33c ff29 933c f794 793d c917 ae3d
00000330: c358 bd3d ba43 c93c 8770 2abd 4678 04be
00000340: 1670 1bbe 39f1 36be de96 b1bd 4ac1 84bc
00000350: 044d 8dbd e719 4fbd b37f 38bd 86ab ec3c
00000360: 5452 613d 037f bc39 7bf4 57bb f703 7a3d
00000370: 4edb 6bb8 e53b d3bc 9599 e4bc 0275 debc
00000380: 40a2 95bc 30ae 303d 7192 0ebd d4e7 573b
00000390: bcdb 583b 2ed6 babb 1ba3 543b d1dd 023d
000003a0: a728 3f3c bccb 06bc f4d9 223c f602 623d
000003b0: d153 0f3d a704 7b3d 6b69 133d e146 693b
000003c0: 584d 273d a196 2d3d 30e6 ac3b 154a afbd
000003d0: cd93 d0bd cc30 c6bd 7682 93bd abfe 00bd
000003e0: 8572 16ba 9353 ccbc 6a87 b9bd 0090 5cbd
000003f0: dcc2 5cbd 7266 bbbc cdef 41bc ca86 2c3d

linear1.bias f4 [100]
0.2649591 0.29281834 0.3869378 0.3294155 0.2510258 0.28172633 0.34447125 0.30489373
0.32652172 0.3038692 0.2234614 0.26109347 0.33822733 0.30718714 0.36835855 0.3292021
0.27958456 0.32413203 0.30392045 0.33969954 0.044867344 0.2747785 0.31135875 0.25525212
0.29171658 0.30824912 0.2848487 0.30538526 0.27857187 0.2657731 0.3205626 0.24821238
0.31501064 0.34118786 0.3156307 0.32087308 0.28565738 0.35213697 0.30737484 0.29885787
0.35105324 0.28236082 0.36444873 0.2737448 0.2846874 0.2928517 0.34104073 0.28102323
0.30357233 0.25599343 0.3457149 0.26198173 0.27280948 0.32967606 0.29244182 0.32959458
0.32290056 0.30801615 0.3058106 0.2530369 0.30281648 0.022560593 0.18450823 0.2250595
0.12353444 0.34328696 0.19793758 0.32704905 0.18904291 0.29132318 0.20224355 0.33331764
0.26371944 0.25694668 0.32354575 0.32778725 0.3837106 0.32062587 0.28560698 0.29196474
0.07001826 0.31675997 0.3034239 0.3355619 0.33126074 0.28533098 0.32612613 0.20419534
0.3266616 0.3511025 0.31823036 0.32369143 0.30702904 0.26709506 0.12015821 0.24928802
0.3652847 0.31197622 0.28287035 0.3136456
00000000: b8a8 873e 49ec 953e b61c c63e 26a9 a83e
00000010: 7486 803e 6f3e 903e 895e b03e 081b 9c3e
00000020: db2d a73e be94 9b3e 11d3 643e 0bae 853e
00000030: 222c ad3e a247 9d3e 7e99 bc3e 2d8d a83e
00000040: b525 8f3e a2f4 a53e 769b 9b3e 19ed ad3e
00000050: d2c6 373d c4af 8c3e 6a6a 9f3e 68b0 823e
00000060: e05b 953e d4d2 9d3e b0d7 913e 755b 9c3e
00000070: f9a0 8e3e 6913 883e c820 a43e 632b 7e3e
00000080: 1349 a13e 2db0 ae3e 599a a13e 7a49 a43e
00000090: af41 923e 4c4b b43e 3c60 9d3e e603 993e
000000a0: 40bd b33e 9991 903e 0699 ba3e 4728 8c3e
000000b0: 8cc2 913e a8f0 953e e49c ae3e 47e2 8f3e
000000c0: d56d 9b3e 9211 833e 8b01 b13e 7822 863e
000000d0: afad 8b3e 4dcb a83e efba 953e 9fc0 a83e
000000e0: 3953 a53e 4bb4 9d3e 3593 9c3e 0d8e 813e
000000f0: c30a 9b3e fed0 b83c baef 3c3e ff75 663e
00000100: a0ff fc3d 4fc3 af3e 26b0 4a3e f972 a73e
00000110: 7794 413e 5028 953e ef18 4f3e 9ca8 aa3e
00000120: 3c06 873e 848e 833e caa7 a53e bbd3 a73e
00000130: b775 c43e 1329 a43e 143b 923e 677c 953e
00000140: bc65 8f3d 5d2e a23e 615a 9b3e c5ce ab3e
00000150: 029b a93e e716 923e 01fa a63e 9518 513e
00000160: 3040 a73e b5c3 b33e 17ef a23e e2ba a53e
00000170: e932 9d3e afc0 883e 8215 f63d 5c45 7f3e
00000180: 9906 bb3e 59bb 9f3e 62d4 903e 2896 a03e

linear2.weight f4 [12, 100]
-0.33854157 -0.1676228 0.08478761 -0.38857436 -0.16515112 -0.11658291 0.19642761 -0.12323797
-0.20984131 -0.2191038 -0.12569499 -0.02252149 0.07352097 -0.11009052 -0.26899225 0.0018845627
-0.21926357 0.1925872 -0.3251868 -0.22648837 0.09022465 -0.037772227 -0.08668688 0.10029609
-0.18866308 0.07941725 0.17262898 -0.35192558 0.009280625 -0.12527151 0.03236655 0.12082725
-0.3616817 -0.44941622 0.22996537 -0.020610457 -0.3582721 0.09627876 -0.033718824 -0.24365252
-0.31806102 0.16939363 -0.28420022 0.13184586 0.10192569 0.09390199 -0.09418565 0.044263113
-0.064261116 -0.0333571 0.06722485 0.052762896 -0.36924997 -0.11554954 -0.2608498 0.119008705
-0.08627352 -0.20274746 -0.29661122 -0.09184397 -0.16585696 0.03783837 -0.11211053 -0.15646091
-0.055716302 0.10944196 -0.05648682 0.0012886602 -0.021831717 -0.038715594 -0.23217037 -0.22324851
-0.2874018 0.066990994 0.15583956 -0.09780217 0.022911055 0.032144424 -0.2567854 -0.20758386
-0.11915389 0.09297133 -0.18707539 0.14307804 -0.03569894 -0.04879221 -0.27960426 -0.12627733
-0.30351973 -0.14626935 -0.24464917 0.16909415 -0.20058653 -0.038967505 0.09672298 -0.13338968
-0.24167119 -0.1201343 0.014975312 -0.12284476 -0.21197468 0.039142884 -0.004910726 0.07554847
-0.40343818 -0.15322942 -0.12957378 0.1846702 0.18925571 -0.412762 -0.17509234 0.08459679
-0.24585295 -0.04622296 0.08582234 -0.06769803 0.08503871 -0.2750289 0.038279817 0.14510341
0.037148558 -0.3011832 -0.10247549 -0.21943949 -0.072208114 -0.23394848 -0.20567766 -0.07092165
0.1160014 0.12001411 -0.3503815 -0.19254543 -0.16248308 -0.03851329 -0.039375942 0.2079459
0.08873737 -0.2983143 -0.014320766 -0.22880788 -0.3452967 0.18600968 -0.1720989 -0.1912897
-0.13406944 -0.3627413 0.21498838 0.05499873 -0.40083775 -0.16139981 -0.23803024 0.068081595
-0.21793535 0.13923386 -0.020227138 -0.16693795 0.16759922 -0.0062943506 -0.31159538 0.0888987
0.13109969 -0.05694953 -0.01530609 -0.17156444 -0.19162221 -0.036786456 -0.06823004 -0.27671903
-0.18710281 0.08338303 -0.17821667 -0.01941436 0.07838829 -0.05902447 -0.20038274 -0.0042083804
0.1393616 -0.11853017 -0.25511676 0.19953464 0.01491759 0.02033769 0.15406096 -0.2247181
-0.25279817 -0.16993657 -0.12739271 -0.18797255 0.08799474 -0.013202446 -0.24781074 -0.19748986
0.15717526 -0.007980344 -0.02882506 -0.2060562 0.062278856 -0.3749318 -0.3068652 0.067231975
-0.24693067 -0.21652627 -0.36625147 -0.12363214 -0.24323352 -0.19683406 -0.030897759 -0.2381015
-0.214555 0.12647472 -0.10874494 -0.088078804 0.008169059 -0.0569197 0.20089708 0.028422687
-0.032973573 -0.28924507 0.07367782 -0.37694988 -0.092267275 -0.329337 0.11368469 0.022706881
-0.08132003 -0.32568714 -0.202939 0.11240437 -0.16759378 -0.10026485 -0.0680999 0.0057127327
0.17739543 0.08416012 -0.31272742 -0.038107526 -0.1803346 -0.2748468 0.060605697 0.10123315
0.1124395 -0.07217369 0.0012077965 0.008510793 -0.2154848 0.15055847 -0.21268424 -0.3387135
0.02661593 -0.103484124 0.1662958 0.1049593 -0.13527125 -0.065222494 -0.434379 -0.2981079
00000000: 5255 adbe 50a5 2bbe 20a5 ad3d 38f3 c6be
00000010: 601d 29be 05c3 eebd 5224 493e 3064 fcbd
00000020: a4e0 56be bf5c 60be 30b6 00be fd7e b8bc
00000030: 2a92 963d 2377 e1bd 5ab9 89be 6e03 f73a
00000040: a186 60be 9435 453e e27e a6be 91ec 67be
00000050: b4c7 b83d 0db7 1abd e488 b1bd 0968 cd3d
00000060: e530 41be 83a5 a23d a7c5 303e 972f b4be
00000070: c30d 183c 2d47 00be ca92 043d 4774 f73d
00000080: 582e b9be e219 e6be 0b7c 6b3e 43d7 a8bc
00000090: 716f b7be cc2d c53d c01c 0abd 0c80 79be
000000a0: e5d8 a2be 8675 2d3e b182 91be 9a02 073e
000000b0: 6bbe d03d b04f c03d 68e4 c0bd 3d4d 353d
000000c0: 559b 83bd 74a1 08bd 2fad 893d e81d 583d
000000d0: 550e bdbe 3da5 ecbd 1b8e 85be d6ba f33d
000000e0: 2cb0 b0bd 089d 4fbe 6ddd 97be b118 bcbd
000000f0: 68d6 29be 68fc 1a3d 359a e5bd 4a37 20be
00000100: c736 64bd 1b23 e03d b95e 67bd 43e8 a83a
00000110: 6ed8 b2bc 3e94 1ebd 12be 6dbe 429b 64be
00000120: 5426 93be 9332 893d 6894 1f3e 814c c8bd
00000130: f7af bb3c dfa9 033d 6079 83be dd90 54be
00000140: f406 f4bd c167 be3d b190 3fbe 0d83 123e
00000150: 0d39 12bd 57da 47bd 4a28 8fbe d84e 01be
00000160: f066 9bbe a2c7 15be 5085 7abe 0427 2d3e
00000170: 8e66 4dbe 649c 1fbd b316 c63d 4e97 08be
00000180: a778 77be f908 f6bd 035b 753c 0996 fbbd
00000190: e40f 59be 4a54 203d 28ea a0bb 28b9 9a3d
000001a0: 738f cebe 2ce8 1cbe fdae 04be 2f1a 3d3e
000001b0: 40cc 413e 8a55 d3be 684b 33be 1541 ad3d
000001c0: e0c0 7bbe 4954 3dbd 9fc3 af3d 44a5 8abd
000001d0: c628 ae3d 97d0 8cbe 4ccb 1c3d fd95 143e
000001e0: 1629 183d af34 9abe abde d1bd bfb4 60be
000001f0: d9e1 93bd 3190 6fbe 2a9d 52be 5f3f 91bd
00000200: 2492 ed3d f5c9 f53d 3465 b3be a12a 45be
00000210: f761 26be 1dc0 1dbd ab48 21bd c5ef 543e
00000220: f0bb b53d a7bc 98be a5a1 6abc 9d4c 6abe
00000230: bbca b0be 5279 3e3e b23a 30be 72e1 43be
00000240: 8049 09be 3ab9 b9be ea25 5c3e 5946 613d
00000250: 9b3a cdbe fe45 25be 33be 73be 5d6e 8b3d
00000260: 722a 5fbe 5293 0e3e 62b3 a5bc c8f1 2abe
00000270: 219f 2b3e d740 cebb 6e89 9fbe 8610 b63d
00000280: ff3e 063e e943 69bd 65c6 7abc 97ae 2fbe
00000290: 9d38 44be 65ad 16bd 31bc 8bbd 1eae 8dbe
000002a0: e197 3fbe b9c4 aa3d 6e7e 36be dd0a 9fbc
000002b0: 0a8a a03d a5c3 71bd 2231 4dbe 74e6 89bb
000002c0: cfb4 0e3e f2bf f2bd aa9e 82be cf52 4c3e
000002d0: e868 743c 3a9b a63c 28c2 1d3e 801c 66be
000002e0: c36e 81be da03 2ebe 3c73 02be e07b 40be
000002f0: 9636 b43d 124f 58bc 19c2 7dbe c83a 4abe
00000300: 8df2 203e fdbf 02bc 8822 ecbc 6600 53be
00000310: 1d18 7f3d 10f7 bfbe 6f1d 9dbe ebb0 893d
00000320: 65db 7cbe 10b9 5dbe 5085 bbbe d932 fdbd
00000330: 3512 79be de8e 49be 4c1d fdbc e1d0 73be
00000340: 4eb4 5bbe 9782 013e abb5 debd a962 b4bd
00000350: 84d7 053c a224 69bd f7b7 4d3e b2d6 e83c
00000360: 4c0f 07bd ee17 94be 66e4 963d 93ff c0be
00000370: a0f6 bcbd dc9e a8be 85d3 e83d c803 ba3c
00000380: 1e8b a6bd 77c0 a6be 3ecf 4fbe 4334 e63d
00000390: b49d 2bbe a857 cdbd f677 8bbd e031 bb3b
000003a0: 26a7 353e 245c ac3d cf1d a0be a316 1cbd
000003b0: a2a9 38be b8b8 8cbe ae3d 783d 5353 cf3d
000003c0: ae46 e63d cdcf 93bd ed4e 9e3a da70 0b3c
000003d0: 0ca8 5cbe 002c 1a3e e6c9 59be db6b adbe
000003e0: a709 da3c 7cef d3bd 7249 2a3e e7f4 d63d
000003f0: 8c84 0abe 5f93 85bd ed66 debe 99a1 98be

linear2.bias f4 [12]
-0.055385742 -0.20452985 -0.09834049 -0.13264774 -0.057494774 -0.21174204 -0.05322475 -0.12870799
-0.16089813 -0.122251414 -0.14384098 -0.23496936
00000000: 29dc 62bd 4670 51be bd66 c9bd cfd4 07be
00000010: a47f 6bbd e8d2 58be 3202 5abd 07cc 03be
00000020: 7bc2 24be f35e fabd 0d4b 13be cf9b 70be
