ml/py/freq_predictor.onnx (onnx, 314307 bytes, 4 tensors)

linear1.weight f4 [200, 379]
0	0x3cea6513	0.028612649
1	0x3d30f6d3	0.04320414
2	0xbc4f992a	-0.0126707945
3	0x3d052611	0.032507006
4	0x3d94364a	0.07236917
5	0x3c7640aa	0.015030066
6	0xbbd4644e	-0.006481684
7	0xbb82423f	-0.0039751823
8	0x3c7d97ac	0.015478056
9	0xbd2d67a6	-0.042335175
10	0x39ca89d3	0.0003863113
11	0xbbc835b2	-0.0061099166
12	0x3d0ea5ef	0.034826215
13	0x3ca4cf77	0.020118458
14	0x3c8300ca	0.015991587
15	0xbce8fe81	-0.02844167
16	0xbcbc03f0	-0.022951096
17	0x3c868b6d	0.016423905
18	0xb8d8479b	-0.0001031302
19	0x3d6a8ae0	0.057261348
20	0x3cf27e18	0.029601142
21	0x3d8a10f2	0.06741513
22	0x3a1ff489	0.0006101807
23	0x3ca15848	0.019695416
24	0x3cb744c0	0.02237165
25	0x3d163fc4	0.036681905
26	0xbba15158	-0.004923027
27	0x3c8b0b7d	0.016973251
28	0xbc1db739	-0.009626203
29	0xbc23ff03	-0.01000953
30	0x3c1beb92	0.009516614
31	0xbd24de34	-0.040250972
32	0xbcf91893	-0.030407226
33	0x3bbaa591	0.0056960066
34	0xbbfd2905	-0.007725837
35	0xbb354d16	-0.0027664355
36	0xbd1c2550	-0.03812152
37	0x3d246162	0.040131934
38	0xbd977198	-0.07394713
39	0xbcaee038	-0.02134715
40	0xbc274248	-0.010208674
41	0xbb9b57bb	-0.004740683
42	0x3cd703e8	0.02624698
43	0x3d370335	0.044680793
44	0xbc5d9ef9	-0.013526672
45	0x3d2f2289	0.042757545
46	0xbcea6ce1	-0.02861637
47	0xbcc22602	-0.023699764
48	0xbd614a28	-0.05500236
49	0xbd3f17b0	-0.04665345
50	0xbceff414	-0.02929119
51	0xbb05d533	-0.0020421266
52	0xbd245087	-0.04011586
53	0x3c6b80af	0.014373942
54	0xbccdb5a0	-0.02511102
55	0x3c7f893f	0.015596687
56	0x3c73b609	0.0148749435
57	0xba31a089	-0.0006775936
58	0xbd3cb8f2	-0.046074815
59	0xbd0f5523	-0.034993302
60	0xbda9ce50	-0.08291304
61	0xbd66bc40	-0.056331873
62	0xbdad6314	-0.08466163
63	0x3d0e7b78	0.034785718
64	0x3ceff83d	0.029293174
65	0xbd696546	-0.056981348
66	0x3aea7eee	0.0017890611
67	0xbcf72c96	-0.030172627
68	0xbc55339b	-0.013012792
69	0xbc956888	-0.018238321
70	0x3c4630ca	0.012096593
71	0x3cbe545f	0.02323359
72	0x3cde8301	0.027162077
73	0xbd1d631c	-0.038424596
74	0x3cb3ab38	0.02193223
75	0xbc839a6a	-0.016064841
76	0x3cde38fd	0.027126784
77	0xbbd496b4	-0.006487692
78	0x3d0673d9	0.032825325
79	0x3ce1916d	0.027535165
80	0xbd0a2273	-0.03372426
81	0xbcb15361	-0.021646203
82	0x3cd11aa9	0.025525408
83	0x3d7a08cd	0.06104355
84	0x3d457473	0.048206758
85	0x3d0a96ea	0.03383533
86	0xbd9b1fb2	-0.07574405
87	0xbd1dbc9d	-0.038509954
88	0x3ce4ef0b	0.027946016
89	0x3ceabf4f	0.028655676
90	0x3c3e47e1	0.011613817
91	0xba17d733	-0.000579226
92	0xbbb88aa7	-0.005631763
93	0x3ca394bb	0.019968381
94	0x3ac64258	0.0015125973
95	0xbd2fb82e	-0.042900257
96	0xbd38c78b	-0.045112174
97	0xbcacfeee	-0.021117654
98	0x3a12b08c	0.00055957655
99	0x3c80c351	0.015718134
100	0xbc14fbdf	-0.009093254
101	0xbd1f1c47	-0.038845327
102	0x3cc41556	0.023935955
103	0x3cd1889d	0.025577838
104	0x3d10ac03	0.035320293
105	0xbc96c9fa	-0.018406857
106	0xbd3e83eb	-0.046512526
107	0x3d3c3677	0.04595038
108	0x3d0a3ad3	0.033747505
109	0x3c67c846	0.01414687
110	0x3cb842fe	0.022492882
111	0xbd041f5a	-0.03225646
112	0xbd3a2f65	-0.045455355
113	0xbcdd000c	-0.026977561
114	0x3cfe04e5	0.031008193
115	0x3cf98c12	0.030462299
116	0xbbab524c	-0.0052283164
117	0xbd7becc9	-0.061505113
118	0xbd149e6f	-0.036283907
119	0xbace7b92	-0.001575338
120	0xbd8347ca	-0.06410177
121	0xbd8235fd	-0.06357954
122	0xba99251c	-0.0011684033
123	0xbbe0c384	-0.006859245
124	0xbd41e784	-0.04733993
125	0xbd875e0d	-0.06609736
126	0x3cb49c7b	0.022047272
127	0x3cb2e987	0.02183987
128	0xbb14736b	-0.0022651802
129	0xbcf2f237	-0.029656513
130	0xbd778587	-0.060430076
131	0x3cd38527	0.025820328
132	0x3ac54419	0.0015050202
133	0x3c539150	0.012913063
134	0x3b95bbb0	0.0045694932
135	0xbd010662	-0.031500228
136	0x3d58dfc8	0.05294779
137	0xbc9091fc	-0.017647736
138	0xbd234591	-0.039861266
139	0xbd87601e	-0.0661013
140	0xbd53231f	-0.051547166
141	0xbd188765	-0.037238497
142	0x3b7f1782	0.0038923924
143	0xbce2a276	-0.027665358
144	0xbca7be50	-0.02047649
145	0xbb523431	-0.0032074566
146	0xbd5b2c71	-0.05350918
147	0x3cf0a21a	0.029374171
148	0xbd759fed	-0.05996697
149	0x3d2a80fa	0.041626908
150	0xbb999243	-0.004686625
151	0x3c7e72b9	0.015530282
152	0xbbe6d2f7	-0.007044192
153	0x3ca776bb	0.020442357
154	0xbd9b134e	-0.075720415
155	0xbcb07575	-0.021540383
156	0x3ce47de7	0.027892066
157	0x3d1bd0ef	0.03804105
158	0xbc8f74e4	-0.017511792
159	0x3d477ff1	0.048706
160	0x3cd4a227	0.025956227
161	0x3c267244	0.010159079
162	0xb99ab7d1	-0.00029510123
163	0xbc41d0ef	-0.011829599
164	0x3aaa240c	0.0012980714
165	0xbd80f921	-0.062975176
166	0xbd459f7c	-0.0482478
167	0xbd9cdbef	-0.076591365
168	0xbd0b6899	-0.0340353
169	0xbd948af7	-0.07253068
170	0xbd3889ff	-0.04505348
171	0xbb9cd944	-0.0047866423
172	0xbafeedb5	-0.0019449504
173	0xbd1126e0	-0.035437465
174	0xbce2db3f	-0.027692435
175	0x3cd78907	0.026310457
176	0xbce2386a	-0.027614791
177	0xbc9c3432	-0.019067857
178	0xbd3b2f93	-0.045699667
179	0x3cd04022	0.025421206
180	0xbccf0bba	-0.025274146
181	0xbd034e36	-0.03205701
182	0xbd7f2ec3	-0.062300455
183	0xbcdf30e0	-0.027244985
184	0xbcece595	-0.028918067
185	0xbc5e411f	-0.013565331
186	0x3d06e02c	0.03292863
187	0xbc346b2d	-0.011011881
188	0x3c853111	0.016258748
189	0x3d135a42	0.03597475
190	0xbd4e8bd8	-0.050426334
191	0x3d2c3e22	0.042051442
192	0x3c1131c2	0.008861961
193	0x3d05f78e	0.03270679
194	0xbbb803b3	-0.0056156754
195	0x3d158435	0.036503036
196	0x3b165dab	0.0022944014
197	0x3c98fa22	0.01867396
198	0xbbe7e38e	-0.007076687
199	0xbd741178	-0.059586972
200	0xbd179618	-0.037008375
201	0xbbe9bf35	-0.0071333894
202	0xbc579dff	-0.013160228
203	0xbcb4437d	-0.022004837
204	0xbca2b3a3	-0.019861048
205	0xbd5c8401	-0.053836826
206	0xbd84afbf	-0.064788334
207	0xbd0ef66b	-0.03490297
208	0xbb3d6ddc	-0.0028904593
209	0xbcdf38c9	-0.027248757
210	0x3d828ba5	0.06374291
211	0x3d1a3b8f	0.037654456
212	0x3d02cd4e	0.031934075
213	0xbc009062	-0.007846924
214	0xbd5aad56	-0.053387962
215	0x3d0fc151	0.03509647
216	0xbd186f3b	-0.037215453
217	0xbd1521fc	-0.036409363
218	0x3cf18b0a	0.029485244
219	0x3d497d10	0.049191535
220	0xbcc0c607	-0.023531927
221	0xbd1e19fe	-0.038599007
222	0xbc93894e	-0.018009808
223	0x3d411ff9	0.047149632
224	0xbd98499b	-0.07435914
225	0xbd36f9b9	-0.044671748
226	0x3d528705	0.051398296
227	0x3d0ad587	0.03389504
228	0xbbd0fb97	-0.006377648
229	0x3c783909	0.015150317
230	0xbd81afbe	-0.06332348
231	0x3bbe0e6e	0.00580006
232	0xbd264db6	-0.040601455
233	0xba140e5b	-0.0005647891
234	0xbd3fb7e8	-0.046806246
235	0xbd631c50	-0.055446923
236	0xbd8066dd	-0.062696196
237	0x3af385a0	0.0018579252
238	0xbda2ab7e	-0.07942866
239	0xbd6161c6	-0.055024885
240	0xbd8751f9	-0.06607432
241	0xbdaeedbb	-0.08541437
242	0xbcbee138	-0.023300752
243	0x3d8497df	0.064742796
244	0xbd8778c2	-0.066148296
245	0x3cacdf97	0.02110271
246	0xbc5e59c0	-0.013571203
247	0x3ce864f7	0.028368456
248	0x3c9b4ad6	0.018956583
249	0xbba7cace	-0.0051206117
250	0xbd3b990b	-0.04580025
251	0x3c50af9f	0.012737184
252	0xbd667ed3	-0.056273293
253	0x3c11d707	0.008901364
254	0xbd2d65e4	-0.0423335
255	0x3d4b62c6	0.049654745

linear1.bias f4 [200]
0	0x3d373f1e	0.044737928
1	0xbd6cac83	-0.057781707
2	0x3c6ce55e	0.014458982
3	0x3f0b658f	0.5445184
4	0x3f109b3a	0.56486857
5	0xbc937669	-0.018000798
6	0x3de3d4ae	0.1112455
7	0x3d3fe60e	0.046850257
8	0x3c74e722	0.0149476845
9	0xbc0b92e7	-0.008518911
10	0x3c8ba4ab	0.017046293
11	0xbcadc937	-0.02121411
12	0xbbe9fd3a	-0.0071407827
13	0x3e153a9d	0.1457314
14	0xbc177dd8	-0.009246312
15	0x3cd48299	0.02594118
16	0x3d0d1f40	0.03445363
17	0xbc928e4e	-0.017890122
18	0x3be458d1	0.0069685956
19	0xbc4d61d7	-0.012535534
20	0xbce9e701	-0.028552534
21	0x3e73cfce	0.2380974
22	0x3e8b6aac	0.27229822
23	0xbcfc40e5	-0.030792663
24	0xbc8386e8	-0.01605554
25	0xbb4f834a	-0.0031663948
26	0x3cbcbbcc	0.023038767
27	0x3db9abe0	0.09065986
28	0x3beb3ffe	0.0071792593
29	0x3e392706	0.18081293
30	0xbcb31ff9	-0.021865832
31	0xbc9b5b3b	-0.0189644
32	0x3cd492d9	0.025948929
33	0xbd3b130a	-0.045672454
34	0xbc5915ef	-0.013249858
35	0x3ee336bb	0.44377694
36	0x3e0a24dd	0.13490625
37	0x3d18ac81	0.037273888
38	0xbc45da09	-0.012075909
39	0x3ee64a43	0.44978532
40	0x3d0bd293	0.034136366
41	0x3e6f7b71	0.23386933
42	0x3d1ee0e1	0.03878868
43	0x3c09005d	0.008361903
44	0xbd37aeae	-0.044844322
45	0x3e2d50e7	0.16925393
46	0x3ce49731	0.027904125
47	0x3eb59ba7	0.35470316
48	0x3db22a7e	0.08699511
49	0xbcaa184f	-0.020763544
50	0xbc795781	-0.015218616
51	0xbcb55ea0	-0.022139847
52	0xbc8ee6b2	-0.017443988
53	0x3e7b9317	0.24567829
54	0x3b9a4a62	0.004708574
55	0xbca609e5	-0.02026839
56	0xbc6aa287	-0.014320976
57	0x3d43de6f	0.04781955
58	0x3d668253	0.05627663
59	0x3d5b13aa	0.05348555
60	0xbc37951b	-0.011204983
61	0x3d23c06b	0.039978426
62	0xba8e7beb	-0.0010870671
63	0xbd349dce	-0.044095807
64	0xbb89971a	-0.004198921
65	0x3d715ea8	0.05892816
66	0x3f195f08	0.5991063
67	0x3d2a2845	0.04154231
68	0x3ca733e4	0.020410486
69	0x3d035f3c	0.032073244
70	0x3eaef164	0.3416854
71	0xbd8830cb	-0.066499315
72	0xbd1a1c1d	-0.037624467
73	0xbc896890	-0.016773492
74	0x3d96b60d	0.07358942
75	0x3e0b19ef	0.13584112
76	0x3f3872d4	0.72050214
77	0x3dc9abe1	0.098472364
78	0x3dedb5ae	0.11606918
79	0x3cce5c7d	0.025190586
80	0xbc92b033	-0.017906284
81	0xbb232e76	-0.002489952
82	0x3e8f452d	0.27982464
83	0xbbb6828e	-0.0055697626
84	0x3e0dccb3	0.13847618
85	0x3e24890a	0.16067901
86	0xbcba2e8d	-0.022727275
87	0x3cc2ca7e	0.023778196
88	0xbb88470b	-0.0041588596
89	0x3e602727	0.21889935
90	0xbca2a343	-0.01985324
91	0xbe075e12	-0.13219479
92	0xbcbb23a2	-0.02284414
93	0x3d73f609	0.05956081
94	0x3f08b9bd	0.53408414
95	0xba2dcf75	-0.000663034
96	0x3d81bde7	0.06335049
97	0x3dab044e	0.083504304
98	0xbb7baf5f	-0.003840409
99	0x3d4470d0	0.04795915
100	0x3e72e9ea	0.23722044
101	0x3d784bc4	0.06061913
102	0xbc8c03ef	-0.01709172
103	0xbd045c4f	-0.032314595
104	0xbcab73c9	-0.020929234
105	0x3e88a95a	0.26691705
106	0x3d6a279b	0.057166677
107	0x3bbb6f1c	0.0057200324
108	0x3d49e529	0.04929081
109	0x3e2dcd30	0.16972804
110	0x3c50c0a9	0.012741246
111	0x3b8b649e	0.004253938
112	0xbcbda575	-0.023150185
113	0x3af33da7	0.0018557803
114	0x3e19f093	0.15033178
115	0xbd3e3e6f	-0.04644626
116	0xbd55c38c	-0.05218844
117	0xbc269b20	-0.010168821
118	0xbc1d05a6	-0.009583866
119	0xbd2091bb	-0.03920148
120	0x3d4c9159	0.0499433
121	0x3c55add1	0.013041929
122	0x3be42a64	0.006963061
123	0x3d2f23c6	0.042758726
124	0x3ca59016	0.020210307
125	0x3d0e753e	0.03477978
126	0x3d356b4c	0.04429178
127	0x3d07bb75	0.033137757
128	0xbcfe738a	-0.031060953
129	0xbdc45c38	-0.09587902
130	0x3ea4ecf1	0.32212022
131	0x3d1f990e	0.038964324
132	0xbd28afa3	-0.041183125
133	0xbccc2e41	-0.0249244
134	0x3c7ecfe8	0.015552498
135	0x3c245f46	0.010032481
136	0x3c265f44	0.010154549
137	0xbc963596	-0.018336099
138	0xbbf62db6	-0.0075127734
139	0xbcba57aa	-0.02274688
140	0x3e44b7ee	0.19210789
141	0x3c95dc31	0.018293472
142	0x3e5b5a13	0.2142108
143	0x3d5f940e	0.054584555
144	0xbd4d93fb	-0.050189953
145	0xbb65f28b	-0.0035087194
146	0x3c6f8779	0.014619702
147	0x3c360799	0.01111021
148	0xbbd49326	-0.006487268
149	0xba8e3324	-0.0010848981
150	0x3c3a7181	0.0113796005
151	0x3f0927c8	0.53576326
152	0x3d23034d	0.03979807
153	0x3e92d508	0.28678155
154	0x3ecc5953	0.399119
155	0xbd451ede	-0.04812514
156	0x3d1079f1	0.035272542
157	0xbc346273	-0.0110098
158	0x3cf99908	0.030468479
159	0x3d436224	0.047701016
160	0x3d8dc7d2	0.06922878
161	0xbc47171c	-0.012151506
162	0x3b501e08	0.0031756181
163	0x3e46d254	0.19416171
164	0x3c76561b	0.015035178
165	0xbbe4c672	-0.0069816643
166	0xbd642303	-0.055697452
167	0x3cdf36fd	0.0272479
168	0xbcae0f7d	-0.02124762
169	0x3f481edc	0.7817209
170	0x3d286dcc	0.041120335
171	0xbc275d2b	-0.010215084
172	0x3ce67b60	0.028135002
173	0x3e4cb390	0.19990373
174	0xbc54e8ad	-0.012994927
175	0x3b7d4a85	0.0038649153
176	0x3eeaf8a8	0.45892835
177	0xbc51bf94	-0.012802023
178	0x3eb119c0	0.34589958
179	0x3f0a2ff6	0.5397943
180	0xbc11870f	-0.008882298
181	0x3d654652	0.055975266
182	0xbc96b221	-0.018395485
183	0x3c306af4	0.010767687
184	0x3dbcd543	0.09220364
185	0x3c89a44c	0.016801976
186	0xbb6e18f7	-0.0036330798
187	0x3d37c2f2	0.04486365
188	0x3c8935cf	0.01674929
189	0x3e781ff2	0.24230936
190	0xbc409361	-0.011753888
191	0x3db2047f	0.08692264
192	0x3f2f405d	0.68457586
193	0x3d18dcec	0.037320063
194	0x3b4bdfc9	0.0031108728
195	0x3d9f2ce4	0.07772234
196	0x3c80fc58	0.015745327
197	0x3beaa3f0	0.007160656
198	0xbc0ac4ff	-0.008469819
199	0x3c8f9623	0.017527645

linear2.weight f4 [12, 200]
0	0xbd9ddaea	-0.0770777
1	0x3be77863	0.0070639118
2	0xbc35b3b5	-0.011090209
3	0xbda0b974	-0.078478724
4	0xbbffb5a9	-0.007803638
5	0xbd59c411	-0.0531655
6	0xbd046a9b	-0.03232823
7	0x3ce05b11	0.027387174
8	0xbaa69d14	-0.0012711608
9	0x3d160de6	0.03663435
10	0x3b191bf4	0.0023362609
11	0xbbbe9d10	-0.005817063
12	0x3d08adff	0.03336906
13	0xbd671dba	-0.056424834
14	0x3a3c1393	0.00071745476
15	0xbcadbd81	-0.021208527
16	0xbd8fa819	-0.07014484
17	0x3b9fb5c8	0.004873965
18	0xbd064912	-0.03278453
19	0x3cb89871	0.022533627
20	0xbc5f0749	-0.013612577
21	0x3be10a09	0.0068676514
22	0xbd5e86e6	-0.054327868
23	0x3cd86116	0.026413482
24	0x3ce14a12	0.02750114
25	0x3cbf4de8	0.023352578
26	0x3d4d8219	0.0501729
27	0xbd1c944b	-0.03822736
28	0x3d707f54	0.05871518
29	0xbd0ce0a4	-0.03439392
30	0x3badbc8c	0.0053020176
31	0x3d34047b	0.043949585
32	0xbd0546c3	-0.032538187
33	0x3c13ea90	0.009028092
34	0x3cabbd27	0.020964218
35	0xbda12c5c	-0.07869789
36	0x3bca3b82	0.0061716447
37	0xbb77b395	-0.0037796248
38	0x3cf60014	0.030029334
39	0xbe00e139	-0.12585916
40	0x3d7aa9d2	0.06119711
41	0x3ae93457	0.0017792088
42	0x3d0ff462	0.03514517
43	0xbc798da0	-0.01523152
44	0x3c534581	0.012894989
45	0x3d37cf0e	0.044875197
46	0x3d33c968	0.043893248
47	0xbd3b662e	-0.045751743
48	0xbd88d8cb	-0.06681975
49	0xbd18a9dc	-0.037271366
50	0x3c8623c3	0.016374474
51	0x3d87ee4d	0.06637249
52	0xbbf70881	-0.0075388555
53	0x3c0e0c63	0.008669945
54	0xbc33604a	-0.01094825
55	0x3d9d5441	0.07682086
56	0x3b6bc271	0.003597405
57	0xbbabe252	-0.0052454853
58	0xbbfddbf9	-0.00774717
59	0x3c4254a2	0.011860998
60	0x3aee9ff1	0.0018205625
61	0x3cb7aee2	0.022422258
62	0x3c876841	0.016529204
63	0xbc1b6f88	-0.00948704
64	0x3bc15823	0.0059003993
65	0x3d4d91a8	0.050187737
66	0xbc07789f	-0.008268504
67	0xbc41d585	-0.011830692
68	0x3d912528	0.07087165
69	0x3bc60dd4	0.006044129
70	0xbcf4c8bd	-0.029880876
71	0x3d435836	0.047691546
72	0x3c7579cd	0.014982653
73	0xbd199126	-0.03749194
74	0x3ca62140	0.020279527
75	0xbd8e4f73	-0.069487475
76	0xbccda16f	-0.025101392
77	0x3d292d39	0.041302893
78	0xbb0702ad	-0.002060096
79	0xbd8ffc9a	-0.07030602
80	0x3d36f562	0.04466761
81	0xbd58b59e	-0.05290758
82	0x3c55b2e0	0.013043135
83	0xbd373b6c	-0.044734403
84	0xbcf0e01c	-0.029403739
85	0x3c7241f4	0.014786232
86	0x3d8e4f15	0.069486775
87	0x3d4825c2	0.048864134
88	0x3ce0708f	0.027397422
89	0xbd53a474	-0.051670507
90	0xbcba3a98	-0.022733018
91	0xbda3b4d6	-0.07993476
92	0xbd63ef55	-0.055648167
93	0x3d26f8cf	0.040764626
94	0xbc28a83a	-0.010294015
95	0xbd0d4993	-0.034493994
96	0x3cfc3123	0.030785149
97	0xbd899e16	-0.067196056
98	0x3d6289cb	0.05530719
99	0x3cd00cc4	0.025396712
100	0xbbf60885	-0.00750834
101	0x3c8a7b5c	0.016904525
102	0xbd532325	-0.05154719
103	0xbb8783ad	-0.00413557
104	0xbc73fc6d	-0.014891726
105	0xbd818d18	-0.063257396
106	0xbbcc4ca3	-0.0062347217
107	0xbcb9ae9f	-0.022666274
108	0xbd700b43	-0.05860449
109	0x3d0edf0f	0.034880694
110	0x3d459349	0.048236165
111	0xbd84891d	-0.06471465
112	0x3b7d6726	0.0038666218
113	0xbcdb2ec8	-0.026755705
114	0x3cea0423	0.028566426
115	0xbcc23ab0	-0.023709625
116	0x3d6f82d7	0.058474388
117	0x3d2220df	0.03958213
118	0xbc1e8f0b	-0.009677659
119	0x3d10ad45	0.035321493
120	0xbd76605e	-0.060150497
121	0x3d66eb2b	0.056376617
122	0x3d81e46c	0.06342396
123	0xbd83d8d9	-0.06437845
124	0x3c26f8ef	0.010191186
125	0x3c834e77	0.016028626
126	0x3c8df055	0.017326513
127	0x3aa0eac1	0.0012276993
128	0x3b51c821	0.0032010155
129	0x3ce38298	0.027772233
130	0x3c20e8c4	0.009821121
131	0xbcff2873	-0.031147217
132	0x3cb42914	0.021992244
133	0x3d5aa523	0.053380143
134	0x3d5c1327	0.053729203
135	0xba9cad3a	-0.0011953481
136	0xbd01ab1e	-0.03165733
137	0x3d8488d2	0.06471409
138	0xbd3e4474	-0.046452
139	0x3d957519	0.07297725
140	0xbd9e53db	-0.07730838
141	0x3d3fd079	0.046829674
142	0xbcce0b11	-0.025151761
143	0xbd9da2b9	-0.076970525
144	0xbc7bb3ef	-0.015362724
145	0xbd1b5e59	-0.037931774
146	0xbd588e6e	-0.052870207
147	0xbd524f1f	-0.051344987
148	0x3c95a69e	0.018267926
149	0xbd383066	-0.04496803
150	0xbc5ef55a	-0.013608301
151	0x3c450ccd	0.012026978
152	0xbcbc2bf5	-0.02297018
153	0x3bc3127a	0.0059531303
154	0x3c7703f1	0.015076623
155	0x3dd28bc1	0.10280562
156	0x3d41d597	0.047322836
157	0xbd38e8d5	-0.04514392
158	0xbcbf25c0	-0.02333343
159	0xbc6ca76e	-0.014444215
160	0xbcd1d8b4	-0.025616027
161	0x3d04b843	0.03240229
162	0x3d73d0c6	0.059525274
163	0x3d46ecbb	0.048565608
164	0xbcdd9f75	-0.027053574
165	0xbc154d65	-0.009112691
166	0x3d3a53e3	0.045490157
167	0xbd5cf8eb	-0.053948324
168	0x3c9d1981	0.0191772
169	0xbc09c4b7	-0.008408717
170	0x3bc45847	0.005991969
171	0xbd3a432a	-0.04547421
172	0x3c0c03d3	0.008545834
173	0x3c6d55be	0.014485775
174	0xbd97a667	-0.074047856
175	0xbd2a399d	-0.04155885
176	0xbcfa7432	-0.030572984
177	0xbc052f86	-0.008129006
178	0x3c8214a0	0.015878975
179	0x3bd53fca	0.0065078484
180	0xbd541677	-0.051779237
181	0xbd8ee24e	-0.06976758
182	0xbd30f48b	-0.043201964
183	0x3d2f0dfc	0.042737946
184	0x3d0e4517	0.034733858
185	0xbc95a4d6	-0.018267076
186	0x3d19e6eb	0.037573736
187	0x3ca6ae4c	0.020346783
188	0x3d137989	0.036004577
189	0xbd481111	-0.0488444
190	0x3d6d6b8b	0.05796389
191	0x3d595bf3	0.053066205
192	0xbc1444ee	-0.009049637
193	0xbd86fc7a	-0.06591125
194	0x3d322fec	0.043502733
195	0x3d1c6733	0.038184356
196	0x3ba0c292	0.004906007
197	0xbda0faf3	-0.07860365
198	0xbd4a1f6d	-0.049346376
199	0xbd085f48	-0.033293992
200	0x3d8514fb	0.06498142
201	0xbcc3a975	-0.023884514
202	0xbc4e38bb	-0.012586768
203	0x3c40b841	0.01176268
204	0x3cd59487	0.0260718
205	0x3d244d32	0.04011268
206	0x3c244713	0.010026711
207	0xbc68d4f9	-0.014210933
208	0xbd8c6d3a	-0.06856771
209	0xbc9af8ef	-0.018917529
210	0xbceb0049	-0.02868666
211	0xbd359757	-0.044333782
212	0x3d88cced	0.066797115
213	0xbd1ddc3a	-0.038540103
214	0x3c0a1a7f	0.008429169
215	0xbc033702	-0.00800872
216	0x3cfdb696	0.030970853
217	0x3a754d0c	0.0009357489
218	0x3cc8063f	0.02441704
219	0x3d29e8a6	0.041481636
220	0x3d033299	0.032030676
221	0x3d27efd2	0.041000195
222	0xbd7dce7a	-0.06196449
223	0x3d9209e4	0.07130793
224	0x3d77d4f4	0.060505822
225	0xbd8801cc	-0.06640968
226	0xbd24bac7	-0.040217187
227	0xbd05b042	-0.032638796
228	0xbc68f618	-0.01421883
229	0x3c0a6e38	0.00844913
230	0xbd0c5481	-0.034260277
231	0x3caceb84	0.021108396
232	0xbd48d0c8	-0.049027234
233	0x3d86d8c2	0.06584312
234	0x3d42f6e5	0.04759874
235	0xbc81bce5	-0.015837142
236	0xba3dd2f5	-0.0007241213
237	0xbd093488	-0.033497363
238	0xbd0ec1a4	-0.03485264
239	0x3a8b2141	0.0010614769
240	0x3c26fe52	0.010192471
241	0x3bf3ff18	0.007446181
242	0xbd79db7d	-0.061000336
243	0x3cdfbb6f	0.027311055
244	0x3c8b31f9	0.016991602
245	0xbc25f18f	-0.010128393
246	0x3d3b62a8	0.045748383
247	0x3c93a973	0.018025136
248	0xbc9d54e7	-0.019205524
249	0x3d73da8d	0.0595346
250	0x3d4ec40d	0.050479937
251	0x3d3e934a	0.046527185
252	0x3d3285bd	0.043584574
253	0xbd54a19e	-0.051911943
254	0x3c7b75c4	0.015347902
255	0x3caa1688	0.020762697

linear2.bias f4 [12]
0	0xbf02c3bc	-0.51079917
1	0xbf1c2928	-0.610003
2	0xbf1ea3e4	-0.6196883
3	0xbf0c63ed	-0.54839975
4	0xbf01ce71	-0.5070563
5	0xbee9d458	-0.45669818
6	0xbf1481f9	-0.5801082
7	0xbf0b69b7	-0.54458183
8	0xbf17ef37	-0.5934939
9	0xbf103553	-0.56331366
10	0xbee5141f	-0.44741914
11	0xbf0063b0	-0.5015211
